{"modelTopology":{"class_name":"Sequential","config":{"name":"sequential_1","layers":[{"class_name":"Conv1D","config":{"filters":8,"kernel_initializer":{"class_name":"VarianceScaling","config":{"scale":1,"mode":"fan_avg","distribution":"normal","seed":null}},"kernel_regularizer":null,"kernel_constraint":null,"kernel_size":[3],"strides":[1],"padding":"valid","dilation_rate":[1],"activation":"relu","use_bias":true,"bias_initializer":{"class_name":"Zeros","config":{}},"bias_regularizer":null,"activity_regularizer":null,"bias_constraint":null,"name":"conv1d_Conv1D1","trainable":true,"batch_input_shape":[null,30,84],"dtype":"float32"}},{"class_name":"MaxPooling1D","config":{"pool_size":[2],"padding":"valid","strides":[2],"name":"max_pooling1d_MaxPooling1D1","trainable":true}},{"class_name":"Conv1D","config":{"filters":16,"kernel_initializer":{"class_name":"VarianceScaling","config":{"scale":1,"mode":"fan_avg","distribution":"normal","seed":null}},"kernel_regularizer":null,"kernel_constraint":null,"kernel_size":[3],"strides":[1],"padding":"valid","dilation_rate":[1],"activation":"relu","use_bias":true,"bias_initializer":{"class_name":"Zeros","config":{}},"bias_regularizer":null,"activity_regularizer":null,"bias_constraint":null,"name":"conv1d_Conv1D2","trainable":true}},{"class_name":"MaxPooling1D","config":{"pool_size":[2],"padding":"valid","strides":[2],"name":"max_pooling1d_MaxPooling1D2","trainable":true}},{"class_name":"Flatten","config":{"name":"flatten_Flatten1","trainable":true}},{"class_name":"Dense","config":{"units":16,"activation":"relu","use_bias":true,"kernel_initializer":{"class_name":"VarianceScaling","config":{"scale":1,"mode":"fan_avg","distribution":"normal","seed":null}},"bias_initializer":{"class_name":"Zeros","config":{}},"kernel_regularizer":null,"bias_regularizer":null,"activity_regularizer":null,"kernel_constraint":null,"bias_constraint":null,"name":"dense_Dense1","trainable":true}},{"class_name":"Dense","config":{"units":2,"activation":"softmax","use_bias":true,"kernel_initializer":{"class_name":"VarianceScaling","config":{"scale":1,"mode":"fan_avg","distribution":"normal","seed":null}},"bias_initializer":{"class_name":"Zeros","config":{}},"kernel_regularizer":null,"bias_regularizer":null,"activity_regularizer":null,"kernel_constraint":null,"bias_constraint":null,"name":"dense_Dense2","trainable":true}}]},"keras_version":"tfjs-layers 4.22.0","backend":"tensor_flow.js"},"weightsManifest":[{"paths":["./model.weights.bin"],"weights":[{"name":"conv1d_Conv1D1/kernel","shape":[3,84,8],"dtype":"float32"},{"name":"conv1d_Conv1D1/bias","shape":[8],"dtype":"float32"},{"name":"conv1d_Conv1D2/kernel","shape":[3,8,16],"dtype":"float32"},{"name":"conv1d_Conv1D2/bias","shape":[16],"dtype":"float32"},{"name":"dense_Dense1/kernel","shape":[96,16],"dtype":"float32"},{"name":"dense_Dense1/bias","shape":[16],"dtype":"float32"},{"name":"dense_Dense2/kernel","shape":[16,2],"dtype":"float32"},{"name":"dense_Dense2/bias","shape":[2],"dtype":"float32"}]}]}